backend/model/ae_transformer_model.pth (torch, 190065 bytes, 32 tensors)

encoder.0.weight f4 [128, 40]
0	0xbd6aa963	-0.057290446
1	0xbde67718	-0.11253184
2	0xbe2399dd	-0.15976663
3	0xbcb83be7	-0.022489501
4	0x3a84f348	0.0010143304
5	0xbe8e9c45	-0.278536
6	0x3e94a1aa	0.2902959
7	0xbe12432c	-0.14283437
8	0x3e05ee6f	0.13079236
9	0xbe751ae7	-0.23936044
10	0xbd4f36c5	-0.05058934
11	0x3ded5376	0.115881845
12	0x3e77c2e7	0.24195443
13	0x3a9be322	0.0011893252
14	0xbc62adcd	-0.013835383
15	0xbe68edda	-0.22746983
16	0xbe3df5bb	-0.1855077
17	0x3e1570d5	0.14593823
18	0x3d0da040	0.034576654
19	0xbc18803b	-0.009307916
20	0xbdf98082	-0.12182714
21	0xbe1469d5	-0.14493497
22	0x3dd6a15b	0.10479995
23	0xbe40176e	-0.18758938
24	0xbdac4104	-0.08410838
25	0xbd8e05fc	-0.06934735
26	0x3cf5d2e5	0.030007789
27	0xbbe7b449	-0.007071052
28	0x3d936ad6	0.07198112
29	0xbd9e12d3	-0.07718434
30	0x3dd05ef1	0.10174359
31	0x3d269f96	0.040679537
32	0x3d3557f3	0.044273328
33	0x3c192081	0.009346128
34	0x3e157a0c	0.14597338
35	0x3da646f5	0.08119003
36	0x3d04faab	0.032465618
37	0xbdea5cf6	-0.11443512
38	0x3d9c2d37	0.076258115
39	0x3bb6fd64	0.0055844057
40	0x3d123b13	0.03570087
41	0xbbf2c800	-0.0074090958
42	0x3deaea92	0.11470522
43	0x3dc1ddda	0.09466143
44	0x3e693ef9	0.22777928
45	0x3ed4a221	0.41529945
46	0xbd293fd9	-0.041320655
47	0xbeaae07a	-0.33374387
48	0x3e014d88	0.12627232
49	0x3e752a16	0.23941836
50	0x3e039b9f	0.12852333
51	0xbd183620	-0.037160993
52	0x3e12c5bc	0.14333242
53	0xbe984181	-0.29737476
54	0xbdb23978	-0.087023675
55	0x3c5257c5	0.012838309
56	0x3e6ecb74	0.23319799
57	0x38a25af8	7.741706e-05
58	0x3ded1472	0.11576165
59	0xbcc4dba2	-0.02403051
60	0xbdc8b1ae	-0.09799515
61	0x3ddd5f93	0.10809245
62	0x3dd9d739	0.106367536
63	0xbe047b9b	-0.12937777
64	0x3dc5e3d1	0.09662593
65	0x3d9c18ff	0.07621955
66	0xbdacdc77	-0.08440488
67	0xbe4a72fe	-0.19770429
68	0xbd0d28f0	-0.03446287
69	0xbdb908ef	-0.09034907
70	0x3dc1995b	0.09453078
71	0xbde8df60	-0.113707304
72	0x3df30227	0.11865645
73	0xbd96b333	-0.07358398
74	0xbddfc191	-0.10925592
75	0xbcd7848e	-0.026308324
76	0xbd49a853	-0.049232792
77	0xbdd2244c	-0.10260829
78	0x3dcca9aa	0.09993298
79	0x3e1ad659	0.1512083
80	0xbddd6167	-0.10809594
81	0xbc3cdfb4	-0.011527944
82	0x3e9ded32	0.30845028
83	0x3e451807	0.19247447
84	0xbe530883	-0.20608716
85	0x3dcda222	0.1004069
86	0xbd9ac37c	-0.07556817
87	0xbef761a1	-0.48316672
88	0xbdb2ed11	-0.08736623
89	0xbe058d3f	-0.13042162
90	0xbe59e27e	-0.21277806
91	0xbdb5b0ec	-0.08871636
92	0x3d1fbdfa	0.038999535
93	0x3e06c93b	0.13162701
94	0xbe900ffd	-0.28137198
95	0x3e13b780	0.14425468
96	0x3df4e83d	0.119583584
97	0xbe1c6f0f	-0.1527674
98	0xbe18bb99	-0.14915313
99	0x3d3696c1	0.044577364
100	0xbd6bb47d	-0.057545174
101	0x3dfa4100	0.12219429
102	0xbe305f60	-0.17223883
103	0x3ddc06f6	0.10743515
104	0x3d981ce8	0.074273884
105	0x3d2e990d	0.04262643
106	0x3c12379c	0.008924391
107	0xbe9a3ad0	-0.30122995
108	0xbd9c6e7c	-0.07638261
109	0xbda2232e	-0.07916866
110	0xbc35e1a2	-0.011101158
111	0xbbbd433a	-0.0057758363
112	0xbcf1667f	-0.02946782
113	0x3d448abc	0.04798387
114	0x3cc3a286	0.023881208
115	0x3c8b5490	0.017008096
116	0xbd820964	-0.06349447
117	0xbda4d8f6	-0.080491945
118	0x3d67f768	0.05663243
119	0xbe4de5f6	-0.20107254
120	0xbd5587bc	-0.0521314
121	0x3e40d694	0.18831855
122	0x3e8a2b56	0.26986188
123	0x3dc4a8b7	0.09602492
124	0x3dd9e060	0.10638499
125	0x3e1ea6b9	0.15493287
126	0x3e1cd737	0.15316473
127	0xbc8f4095	-0.01748685
128	0xbe174b5b	-0.1477484
129	0x3daace57	0.083401375
130	0x3d0deda3	0.034650456
131	0xbcd457e6	-0.02592082
132	0x3e19197f	0.14951132
133	0xbe0791de	-0.13239238
134	0xbd79e992	-0.061013766
135	0xbd886724	-0.066602975
136	0x3e07603a	0.13220301
137	0xbcf6b460	-0.030115306
138	0xbdc96d6f	-0.09835326
139	0x3d1afa57	0.0378364
140	0xbde9ca2f	-0.114155166
141	0x3e083a75	0.1330355
142	0x3d102479	0.035191033
143	0xbdd9e5ab	-0.10639509
144	0x3e19bda1	0.15013744
145	0xbe202515	-0.15639146
146	0xbe48cd84	-0.19609648
147	0xbe33dbf7	-0.17564379
148	0x3d0e2459	0.034702633
149	0xbccd621e	-0.0250712
150	0xbd63c9ac	-0.05561225
151	0xbd3bc6ae	-0.045843773
152	0x3ddf75e1	0.109111555
153	0xbe031f2a	-0.12804857
154	0xbdd12f23	-0.10214069
155	0x3bd4710b	0.0064832023
156	0x3de32cd4	0.11092535
157	0xbe240b10	-0.16019845
158	0x3da0d830	0.078537345
159	0xbe2e0895	-0.16995461
160	0x3d969424	0.07352474
161	0x3d13fbd6	0.03612884
162	0xbe2b6afb	-0.16740029
163	0xbeadb216	-0.3392493
164	0x3d9c5338	0.0763306
165	0x3de2dca8	0.11077243
166	0x3e6c3234	0.23066026
167	0xbe757f45	-0.2397433
168	0xbced0c21	-0.028936448
169	0x3d359d40	0.04433942
170	0xbf0583bf	-0.52154154
171	0x3da9462c	0.08265337
172	0xbd0d41bd	-0.03448652
173	0x3e6f3d29	0.23363174
174	0x3d73ef7c	0.059554562
175	0xbd6608dd	-0.056160796
176	0xbac45f57	-0.0014982027
177	0xbe1ec43e	-0.15504548
178	0x3e173d14	0.14769393
179	0x3e9c3e9e	0.30516523
180	0xbd3ee527	-0.046605255
181	0xbd8cd5ce	-0.068767175
182	0xbd631e7a	-0.055448987
183	0x3d3cccfd	0.04609393
184	0xbe0d8042	-0.13818458
185	0x3bcc16b4	0.0062282924
186	0x3daee87f	0.08540439
187	0x3d49c413	0.049259257
188	0x3dff56ef	0.12467753
189	0xbb9b41ed	-0.0047380836
190	0x3b34703d	0.002753272
191	0xbda400a4	-0.08007935
192	0xbdeb9453	-0.115029
193	0x3d7ac023	0.061218392
194	0xbe07f492	-0.1327689
195	0x3cc51d85	0.024061928
196	0xbde66298	-0.11249274
197	0xbb04df9b	-0.002027488
198	0x3e0273a6	0.12739429
199	0xbd68069e	-0.056646936
200	0xbdae7238	-0.08517879
201	0x3e1e395d	0.1545157
202	0x3e826fe3	0.25475988
203	0x3cf858ab	0.030315718
204	0x3e28cfb2	0.1648548
205	0xbdf4bd68	-0.11950189
206	0x3d4acd52	0.049512215
207	0xbe2b4e99	-0.16729201
208	0x3c0cd775	0.008596291
209	0xbd86dc8e	-0.06585036
210	0xbda7d8f5	-0.08195678
211	0x3e01c28b	0.12671869
212	0x3d21ad22	0.039471753
213	0xbdbcd3cd	-0.09220085
214	0xbd70db50	-0.058802903
215	0x3d5f2491	0.05447823
216	0x3c0e1c9d	0.008673814
217	0x3d5a5cbb	0.05331109
218	0xbc8eab5a	-0.017415691
219	0x3d78b70e	0.06072145
220	0x3d898ebf	0.0671668
221	0x3d4b9b02	0.049708374
222	0xbdc23b77	-0.09483998
223	0xbd90e259	-0.070744224
224	0xbc58f128	-0.01324109
225	0xbcf7548c	-0.030191682
226	0x3c3d9b32	0.011572646
227	0xbd36d16c	-0.044633314
228	0x3b66a413	0.003519301
229	0x3e0735cd	0.13204117
230	0x3da7720f	0.08176052
231	0x3df0bd54	0.117548615
232	0x3c869cb5	0.016432146
233	0x3d55e58b	0.052220862
234	0x3dbfb7ad	0.09361205
235	0xbd9e08b4	-0.07716504
236	0x3e16c7b5	0.1472462
237	0xbe22e26e	-0.15906689
238	0xbd03bec7	-0.03216436
239	0xbd98464c	-0.07435283
240	0x3d2c210a	0.042023696
241	0xbd3d3f8b	-0.046203177
242	0xbce362c2	-0.027757052
243	0x3eb2de3c	0.34935176
244	0x3dc9906d	0.09842
245	0x3ce63738	0.028102502
246	0xbe9a0cee	-0.3008799
247	0x3e4d9ab6	0.20078549
248	0x3dbf0772	0.09327592
249	0x3e965b1e	0.29366392
250	0x3e98b588	0.29825997
251	0x3e238388	0.15968144
252	0x3de4b59d	0.111674525
253	0x3e7f2d2f	0.2491958
254	0x3d06bb4e	0.03289347
255	0x3e2f1925	0.17099436

encoder.0.bias f4 [128]
0	0x3d57da10	0.052698195
1	0x3d56fdee	0.05248826
2	0x3cbdaa48	0.023152485
3	0xbc979e81	-0.018508198
4	0x3dc47c45	0.09594015
5	0xbad5e664	-0.0016319272
6	0x3ca5387a	0.020168532
7	0xbe11620c	-0.14197558
8	0x3d4bc4b2	0.04974813
9	0x3df5b71e	0.119978175
10	0xbcd77fda	-0.026306082
11	0x3d5f40db	0.05450521
12	0xbd615649	-0.05501393
13	0x3dd7fdad	0.10546432
14	0x3dd20de6	0.10256557
15	0x3dd7b12e	0.10531841
16	0xbc210b2f	-0.0098293265
17	0x3c995ceb	0.018721065
18	0x3d00f367	0.031482127
19	0x3d9d46f9	0.076795526
20	0xbd567f65	-0.052367587
21	0x3da5648b	0.08075818
22	0x3d2c691a	0.04209242
23	0xbdac2c6d	-0.08406911
24	0x3d392ab8	0.045206755
25	0xbce506ca	-0.027957339
26	0x3d9c82a1	0.07642103
27	0x3dca3848	0.09874016
28	0x3d8782a4	0.066167146
29	0x3d7d4a29	0.061838303
30	0x3dac6356	0.08417384
31	0x3d9faa4b	0.07796153
32	0x3ddee754	0.10883966
33	0x3d9dfb29	0.077139206
34	0xbdf80ea0	-0.121121645
35	0xbbffa9c3	-0.0078022196
36	0x3e00ca02	0.1257706
37	0x3d6f299e	0.0583893
38	0x3d7af36a	0.061267294
39	0x3c6b14d6	0.014348229
40	0x3d761eab	0.06008784
41	0xbd3d6d55	-0.046246845
42	0x3d45ba9f	0.04827368
43	0x3bbadfb9	0.0057029394
44	0xbd0a2bca	-0.033733167
45	0xbde2a322	-0.11066271
46	0x3b8489e8	0.00404476
47	0x3d2ac1e1	0.041688804
48	0xbd233889	-0.039848838
49	0x3cde6b53	0.027150786
50	0x3ded825f	0.11597132
51	0x3c8a4fed	0.016883815
52	0x3ca6a639	0.020342933
53	0xbd55599b	-0.052087408
54	0x3b4b0ac9	0.003098177
55	0xbe140c6b	-0.14457862
56	0x3d5b47d9	0.053535316
57	0xbe546721	-0.20742466
58	0xbd868686	-0.06568627
59	0xbd805fca	-0.0626827
60	0x3da5577a	0.080733255
61	0x39d8ea7f	0.00041373444
62	0xbd7d80c4	-0.06189038
63	0xbabf94b7	-0.0014616464
64	0x3d697f6c	0.057006285
65	0x3d5e200c	0.05422978
66	0x3d062c79	0.032757256
67	0x3c8ec568	0.017428115
68	0x3d88ef35	0.0668625
69	0x3d876ce5	0.06612567
70	0x3c41186c	0.011785608
71	0x3d86500b	0.06558236
72	0x3da63625	0.08115796
73	0xbd4c4086	-0.04986622
74	0xbd08075b	-0.03321014
75	0xbdf9a454	-0.12189546
76	0x3dde6c70	0.108605266
77	0xbc97ac80	-0.018514872
78	0x3db3dc0b	0.08782204
79	0x3d33835e	0.043826453
80	0xbd7e0539	-0.0620167
81	0x3db71e9f	0.089413874
82	0x3d340967	0.04395428
83	0x3cc91953	0.024548208
84	0x3ddba6c3	0.10725167
85	0x3c5a4462	0.013321968
86	0xbd58be9e	-0.05291616
87	0x3dab7937	0.08372729
88	0xbe1825ca	-0.14858165
89	0x3d9a30b8	0.075288236
90	0x3de7310d	0.112886526
91	0xbd554f57	-0.052077617
92	0x3dd4484e	0.103653535
93	0xbcf38ef9	-0.02973126
94	0xbd97f93d	-0.07420585
95	0x3cdf653f	0.027269958
96	0x3dee3a54	0.11632219
97	0x3d111a18	0.035425276
98	0x3d17dccb	0.0370758
99	0x3dbb2069	0.09137041
100	0x3e10fbcb	0.14158551
101	0x3c399832	0.01132779
102	0x3c86e37f	0.0164659
103	0xbc9e9a8c	-0.019360803
104	0x3d46389c	0.04839383
105	0xbdac45e0	-0.08411765
106	0x3d363ec7	0.044493463
107	0x3cb6f837	0.022335155
108	0x3d20e771	0.03928322
109	0x3de33e71	0.11095894
110	0x3d6b6b82	0.057475574
111	0xbd9883a3	-0.07446983
112	0x3db598cd	0.08867035
113	0xbc5ce467	-0.01348219
114	0x3d0f7b3e	0.035029642
115	0x3daf373d	0.08555458
116	0x3d3e83a1	0.04651225
117	0x3d44410f	0.047913607
118	0x3d959d9b	0.073054515
119	0x3d263b13	0.04058368
120	0x3d426a36	0.047464572
121	0xbb50c5cf	-0.0031856184
122	0xbdc3519e	-0.095370516
123	0x3d99fde0	0.07519126
124	0x3a661a6b	0.00087777403
125	0x3dc64918	0.0968191
126	0x3db41de2	0.08794762
127	0xbd1542ae	-0.036440544

encoder.1.weight f4 [128]
0	0x3f7a45df	0.97762865
1	0x3f7eb09f	0.9948825
2	0x3f8ccae2	1.0999415
3	0x3f82bc9e	1.0213811
4	0x3f6d7c0c	0.92767406
5	0x3f71dcd9	0.9447761
6	0x3f880dff	1.0629271
7	0x3fb7045d	1.4298207
8	0x3f8f8c02	1.1214602
9	0x3f50b8e2	0.8153211
10	0x3f85869a	1.0431702
11	0x3f7d259d	0.9888552
12	0x3f826249	1.0186244
13	0x3f701fd0	0.9379854
14	0x3f6e5c0f	0.9310922
15	0x3f6d5204	0.9270327
16	0x3f82e7ef	1.022703
17	0x3f8e9081	1.1137849
18	0x3f8ae6f1	1.0851728
19	0x3f754941	0.958149
20	0x3f7a595e	0.97792614
21	0x3f7ddd78	0.9916606
22	0x3f77b1e8	0.9675584
23	0x3f86d610	1.0534077
24	0x3f84d047	1.0376061
25	0x3f978fd3	1.1840767
26	0x3f71449b	0.9424531
27	0x3f732405	0.94976836
28	0x3f7d4e1b	0.98947304
29	0x3f7b32db	0.98124474
30	0x3f6f86db	0.9356515
31	0x3f82043b	1.0157541
32	0x3f70ce82	0.94065106
33	0x3f811e70	1.0087414
34	0x3f8b5776	1.0886066
35	0x3f79664e	0.9742173
36	0x3f6b0efb	0.91819733
37	0x3f758d26	0.959185
38	0x3f72f7c0	0.94909286
39	0x3f8ed5c5	1.1158987
40	0x3f7a4d42	0.97774136
41	0x3f858dd4	1.0433908
42	0x3f70effe	0.941162
43	0x3f77e0b8	0.9682727
44	0x3f8edc6e	1.116102
45	0x3f883c59	1.0643417
46	0x3f965c8a	1.1746991
47	0x3f924ce0	1.142971
48	0x3f9a93e5	1.2076384
49	0x3f7d4e73	0.9894783
50	0x3f6d115b	0.9260461
51	0x3f769e0c	0.9633491
52	0x3f804d36	1.0023563
53	0x3f81c7b3	1.0139068
54	0x3f8295d8	1.0201979
55	0x3f868d82	1.0511935
56	0x3f888ad3	1.0667366
57	0x3f8f7be9	1.1209689
58	0x3f8efe56	1.1171367
59	0x3f94dec2	1.163048
60	0x3f75fb36	0.9608644
61	0x3f977eeb	1.1835607
62	0x3f88221b	1.0635408
63	0x3f906f11	1.1283895
64	0x3f778dbb	0.9670064
65	0x3f79cefd	0.97581464
66	0x3f8f7dda	1.1210282
67	0x3f8924f4	1.0714402
68	0x3f812529	1.0089465
69	0x3f6fd4e4	0.9368422
70	0x3f86b4ba	1.0523903
71	0x3f85fc88	1.0467691
72	0x3f746780	0.9547043
73	0x3f8b9034	1.0903382
74	0x3f83384a	1.0251553
75	0x3f8c42d9	1.09579
76	0x3f63daac	0.8900554
77	0x3f85af92	1.0444205
78	0x3f685ffb	0.90771455
79	0x3f812a92	1.0091116
80	0x3f8982fd	1.07431
81	0x3f73c9c3	0.9522974
82	0x3f775eb8	0.96628904
83	0x3f810e6e	1.0082529
84	0x3f6c0520	0.9219532
85	0x3f7cef16	0.98802316
86	0x3fa46bda	1.2845414
87	0x3f7cdd45	0.9877513
88	0x3f93bdf4	1.1542344
89	0x3f71438a	0.9424368
90	0x3f692913	0.910783
91	0x3f8f241b	1.1182894
92	0x3f6bf01c	0.9216325
93	0x3f824616	1.0177639
94	0x3f93ce76	1.1547382
95	0x3f83fabd	1.0310894
96	0x3f753286	0.9578022
97	0x3f7c4df8	0.9855647
98	0x3f77a81b	0.96740884
99	0x3f6e3f8d	0.9306572
100	0x3f746216	0.9546217
101	0x3f7cf509	0.98811394
102	0x3f82893f	1.0198134
103	0x3f8cd176	1.1001422
104	0x3f744e33	0.9543182
105	0x3f8fbfc7	1.1230401
106	0x3f73ec38	0.95282316
107	0x3f813024	1.0092816
108	0x3f7b5ddc	0.98190093
109	0x3f6d4b4b	0.9269301
110	0x3f82f50d	1.0231034
111	0x3f8cfcb0	1.1014614
112	0x3f6e1add	0.9300974
113	0x3f9ade96	1.2099178
114	0x3f739e22	0.95163167
115	0x3f73a2ad	0.951701
116	0x3f807d44	1.0038228
117	0x3f787099	0.9704681
118	0x3f80e25e	1.0069082
119	0x3f82762e	1.0192316
120	0x3f85c275	1.0449969
121	0x3f800291	1.0000783
122	0x3f8f7cac	1.1209922
123	0x3f73ce45	0.9523662
124	0x3f8c0f0e	1.0942094
125	0x3f68eb9f	0.9098453
126	0x3f75ca25	0.96011573
127	0x3f83917d	1.0278774

encoder.1.bias f4 [128]
0	0xbdbc870c	-0.09205446
1	0xbdc52a16	-0.09627168
2	0xbd870050	-0.065918565
3	0xbbe4dbd2	-0.0069842124
4	0xbe3234c0	-0.17402935
5	0xbc29fb02	-0.010374786
6	0xbd0aacd2	-0.03385622
7	0x3d352441	0.044224028
8	0xbdf80924	-0.121111184
9	0xbe78e44c	-0.24305838
10	0xbc8a4e5e	-0.016883072
11	0xbdd3a806	-0.10334782
12	0x3d48d75f	0.04903352
13	0xbe4f8f1c	-0.20269436
14	0xbe07eaad	-0.13273115
15	0xbde32921	-0.11091829
16	0xbcabec89	-0.020986812
17	0x3cc190a5	0.023628542
18	0xbced046f	-0.028932778
19	0xbdc8769b	-0.09788247
20	0x3cd87515	0.026423017
21	0xbe0c332b	-0.13691394
22	0xbd265e88	-0.040617496
23	0xbb9a6073	-0.0047112047
24	0xbda4071a	-0.08009167
25	0xbe0c8bac	-0.13725156
26	0xbe19c99b	-0.15018313
27	0xbe4582c4	-0.19288164
28	0xbdf079ec	-0.11742005
29	0xbdeff0b2	-0.11715831
30	0xbe156904	-0.14590842
31	0xbe264e4d	-0.16240807
32	0xbdba2e1c	-0.09090826
33	0xbe394c3a	-0.18095484
34	0x3cb61e82	0.022231344
35	0xbcbd6002	-0.02311707
36	0xbe398257	-0.18116127
37	0xbdd5d557	-0.10441082
38	0xbded96e2	-0.11601044
39	0xbcb1e0eb	-0.021713695
40	0xbd9e1719	-0.07719249
41	0xbc907e75	-0.017638424
42	0xbdee4b72	-0.11635484
43	0xbc41fdb6	-0.011840275
44	0x3ca980c7	0.020691289
45	0x3b98a481	0.0046582823
46	0xbbf7e5e5	-0.0075652474
47	0xbdb7974e	-0.08964406
48	0x3c52bea9	0.01286284
49	0xbd25656d	-0.04037993
50	0xbe084fa9	-0.13311638
51	0xbd0383b1	-0.032108013
52	0xbceaf93d	-0.0286833
53	0x3cd8ce6f	0.026465623
54	0xbce3cee5	-0.027808616
55	0x3bbedd64	0.0058247317
56	0xbde559d3	-0.11198773
57	0xbbb0c13c	-0.005394129
58	0xbca2c42f	-0.019868938
59	0xbe44ac7d	-0.19206424
60	0xbe0cb18c	-0.13739604
61	0xbd868fab	-0.06570371
62	0x3c89f003	0.01683808
63	0xbd007fd2	-0.0313719
64	0xbde04b92	-0.10951914
65	0xbd733bc7	-0.05938318
66	0xbcd4dea3	-0.025985068
67	0x3c2122c3	0.009834948
68	0xbe0fc89e	-0.14041373
69	0xbde76458	-0.11298436
70	0xbdba8cc8	-0.09108883
71	0xbd9edaa2	-0.07756545
72	0xbe26ef8e	-0.1630232
73	0x3c2dc4c4	0.010605995
74	0xbcc052fe	-0.023477074
75	0x3d629204	0.055315033
76	0xbe34f44a	-0.17671314
77	0x3aed0afb	0.0018084937
78	0xbe37e9c2	-0.17960265
79	0xbd6d4dbf	-0.057935473
80	0x3c271e63	0.010200116
81	0xbdce8f43	-0.10085919
82	0xbd94701f	-0.07247948
83	0xbc6b4ccb	-0.014361571
84	0xbdf7e46c	-0.12104115
85	0xbd248c29	-0.04017273
86	0xbe93d151	-0.28870633
87	0xbe005118	-0.12530935
88	0xbd24de2e	-0.04025095
89	0xbdbd55dc	-0.09244892
90	0xbe13b7e1	-0.14425613
91	0xbb463937	-0.0030246505
92	0xbe5d4960	-0.21610022
93	0xbc72afb7	-0.0148124015
94	0x3bcee02d	0.006313345
95	0xbca4c933	-0.02011547
96	0xbdb6e691	-0.08930696
97	0xbdf138a3	-0.11778381
98	0xbd53a832	-0.051674075
99	0xbe1b1ce1	-0.15147735
100	0xbd9c7aea	-0.076406315
101	0xbc74a028	-0.014930762
102	0xbcb2ae7a	-0.021811713
103	0xbd2f25b2	-0.04276056
104	0xbe0e6fe2	-0.13909867
105	0x39293b95	0.00016139292
106	0xbdb274ca	-0.08713682
107	0xbd12ec07	-0.035869624
108	0xbd25ca9c	-0.040476426
109	0xbe342b71	-0.17594697
110	0xbdb9ffb8	-0.090819776
111	0xbcc64c44	-0.024206288
112	0xbe0fb0f0	-0.1403234
113	0xbd0edc86	-0.034878276
114	0xbd35b1a1	-0.044358853
115	0xbe333bf0	-0.17503333
116	0xbdc1bd45	-0.094599284
117	0xbd66f611	-0.05638701
118	0xbdb97c8f	-0.09056961
119	0xbd618231	-0.0550558
120	0xbdbe5425	-0.09293393
121	0xbcec8937	-0.028874023
122	0x3ce5f1bf	0.028069375
123	0xbdf609ab	-0.12013563
124	0xbd445eac	-0.04794185
125	0xbe5c605d	-0.21521135
126	0xbda7c4a5	-0.08191804
127	0x3ca46643	0.020068293

encoder.4.weight f4 [64, 128]
0	0xbd61ab35	-0.055094916
1	0xbd0e634e	-0.034762673
2	0xbd8abaef	-0.06773936
3	0x3c7dc28a	0.015488276
4	0xbd609d87	-0.05483773
5	0xbdff6b5b	-0.12471648
6	0x3c983732	0.018581007
7	0xbe0b572e	-0.13607475
8	0x3d39cf62	0.04536379
9	0xb90fd33d	-0.00013716235
10	0xbd81192d	-0.0630363
11	0xbc6fa51a	-0.014626766
12	0xbdaca5d2	-0.08430065
13	0xbd198b43	-0.037486326
14	0xbc8a35eb	-0.016871413
15	0xba107add	-0.0005511472
16	0x3d3d0931	0.046151344
17	0xbd87e8fb	-0.066362344
18	0x3e151544	0.14558893
19	0xbc0cb133	-0.008587169
20	0xbdeeadb8	-0.11654228
21	0x3cd1d379	0.025613533
22	0x3d82d95d	0.06389115
23	0x3d407c44	0.04699351
24	0x3ddb3616	0.107036754
25	0xbbb02ed5	-0.0053766766
26	0x3d4e998c	0.050439402
27	0xbc1fd973	-0.009756434
28	0xbcf12950	-0.029438645
29	0xbda53c2a	-0.08068116
30	0x3b89b342	0.0042022774
31	0xbd08ca62	-0.033396132
32	0x3d96b4cb	0.07358702
33	0x3dd64f34	0.104643255
34	0xbd44edf6	-0.0480785
35	0xbdf47b4e	-0.11937581
36	0xbd0a36ed	-0.033743788
37	0xbc1f54a0	-0.009724766
38	0x3d930a12	0.07179655
39	0xbe14aece	-0.14519808
40	0x3d502878	0.050819844
41	0xbb9a9821	-0.004717842
42	0x3d439ffd	0.04776
43	0x3ce26f60	0.027640998
44	0x3cd58250	0.026063114
45	0xbde993a5	-0.11405114
46	0x3df42a63	0.11922147
47	0xbd221d32	-0.039578624
48	0xbd5882f5	-0.052859265
49	0xbd22ef5e	-0.03977906
50	0x3c97efe5	0.018547008
51	0xbdb663bf	-0.08905744
52	0xbdc45730	-0.09586942
53	0xbdf99a6e	-0.12187658
54	0x3d7ef394	0.062244013
55	0xbe3bc9b2	-0.1833866
56	0xbe729340	-0.23688984
57	0x3d91df98	0.07122725
58	0xbe0b9262	-0.1363006
59	0xbd60a1f5	-0.054841954
60	0x3d9b7d1d	0.07592223
61	0x3d39ac4a	0.045330323
62	0xbda3bace	-0.079946145
63	0xbd3dd5ba	-0.046346404
64	0x3de68297	0.11255377
65	0x3da6e7ee	0.08149706
66	0xbbadf8a2	-0.0053091804
67	0xbd349f6e	-0.044097356
68	0xbd924a38	-0.07143062
69	0xbcaae67d	-0.020861859
70	0xbd87feba	-0.06640382
71	0xbcf3a69f	-0.029742537
72	0xbcb4fca0	-0.022093117
73	0xbe1aee40	-0.15129948
74	0x3d43bd04	0.04778768
75	0xbc0e4425	-0.008683239
76	0x3cfb6d30	0.030691713
77	0xbdb4f52f	-0.088358276
78	0x3cfcd7aa	0.030864555
79	0xbd3074ba	-0.04308007
80	0xbcd48899	-0.025944041
81	0x3ce842b9	0.028352128
82	0xbdaa652c	-0.08320078
83	0x3ba5b665	0.0050571435
84	0xbd6f97bb	-0.05849431
85	0x3d6ed8a8	0.05831209
86	0x3d95fa33	0.07323112
87	0x3cf5d209	0.03000738
88	0xbd34bbd6	-0.044124447
89	0x3d9cf1b2	0.07663287
90	0x3d920b1b	0.071310245
91	0xbb46e088	-0.0030346233
92	0xbccb608d	-0.024826312
93	0xbd70ab57	-0.058757152
94	0xbdc32292	-0.09528078
95	0x3d8391cf	0.06424295
96	0xbcd3f38f	-0.025872974
97	0xbcff56a8	-0.03116925
98	0xbdd89f75	-0.10577289
99	0xbd536572	-0.051610418
100	0x3d6b7f5d	0.05749451
101	0xbbb86a2e	-0.005627892
102	0x3cd61b77	0.026136143
103	0xbb40e55f	-0.002943359
104	0x3d77c3c9	0.06048945
105	0x3ccc4195	0.024933616
106	0x3d8cb9bc	0.068713635
107	0xbdd25426	-0.10269956
108	0x3cbaeecc	0.022818945
109	0xbc84f946	-0.016232144
110	0xbc931f16	-0.017959159
111	0xbd4c2b2f	-0.04984587
112	0xbd4ab7a9	-0.04949156
113	0xbd02582b	-0.031822365
114	0x3befb311	0.0073150476
115	0xbca4dee9	-0.020125823
116	0x3d30d601	0.04317284
117	0x3deddfd2	0.11614956
118	0x3cd8d2dd	0.026467735
119	0xbd00be5b	-0.031431537
120	0x3dcff9ed	0.101550914
121	0xbce0dceb	-0.027449092
122	0xbd352e4a	-0.044233598
123	0x3da37d8a	0.07982929
124	0x3d8a8ff8	0.06765741
125	0x3dbbc47b	0.09168335
126	0xbdb148f3	-0.08656492
127	0xbda49c3c	-0.08037612
128	0xbd0da440	-0.03458047
129	0xbcb7bc39	-0.022428619
130	0x3df06871	0.117386706
131	0x3e024c17	0.12724338
132	0xbde009a7	-0.10939341
133	0x3cde36bf	0.027125714
134	0xbe5fa355	-0.2183965
135	0x3ca9f516	0.020746749
136	0xbdd8797b	-0.105700456
137	0xbd9fc953	-0.078020714
138	0x3d1acbed	0.037792135
139	0xbe011813	-0.1260684
140	0x3d2debef	0.042461332
141	0xbd96a3c9	-0.07355458
142	0xbd88c93f	-0.0667901
143	0xbd8efe67	-0.06982117
144	0x3e04a85c	0.12954849
145	0x3b7f02f2	0.0038911668
146	0xb850a1b0	-4.9741648e-05
147	0xbbdd7370	-0.006758146
148	0x3d955200	0.07291031
149	0xbe30ae0a	-0.1725389
150	0xbd486ccf	-0.048931893
151	0x3d5a2a1d	0.05326282
152	0xbdda3b7e	-0.106558785
153	0x3c1af591	0.009457962
154	0xbd9e1e2a	-0.07720597
155	0xbd7e1cb8	-0.062039107
156	0xbdd6cfc4	-0.10488847
157	0xbe0dbbdf	-0.13841198
158	0x3d15cd4c	0.03657274
159	0xbdf63fdc	-0.12023899
160	0xbd98b4e5	-0.07456378
161	0xbcb8c60d	-0.022555375
162	0x3a360190	0.0006942982
163	0xbb7086aa	-0.003670136
164	0xbdb879c4	-0.090076
165	0xbe2ad824	-0.16684014
166	0x3c2f317b	0.010692949
167	0x3c8ee09c	0.017441086
168	0xbd1e0b31	-0.03858489
169	0x3d845aa8	0.06462604
170	0xbdeb03e6	-0.11475353
171	0xbd6feb33	-0.058573913
172	0x3c880435	0.016603569
173	0x3d82aa23	0.06380107
174	0xbdab1edb	-0.083554946
175	0x3c387f30	0.011260793
176	0x3d6a87f9	0.05725858
177	0xbd3c206f	-0.04592937
178	0xbddc43eb	-0.10755142
179	0xbe04d041	-0.12970068
180	0xbdab5471	-0.08365715
181	0x3c6d2cc2	0.014476003
182	0xbd46fb0f	-0.048579272
183	0x3db0e51c	0.08637449
184	0xbd968ab8	-0.07350677
185	0x3db03d27	0.08605414
186	0x3e00b94c	0.12570685
187	0x37a1fe2a	1.931105e-05
188	0xbda90246	-0.08252387
189	0x3c68f050	0.014217451
190	0x3e253fc5	0.16137607
191	0xbd891033	-0.06692543
192	0xbcfc7740	-0.030818582
193	0xbe07a84e	-0.13247797
194	0xbd3f61b4	-0.046724036
195	0xbd56e91c	-0.052468404
196	0xbda1a6c1	-0.07893134
197	0x3d3019cc	0.04299335
198	0x3ddacbdd	0.10683415
199	0x3d68319b	0.056687932
200	0xbd35dc36	-0.044399463
201	0x3dbb1183	0.091341995
202	0x3bcf1c46	0.006320509
203	0x3bc5e411	0.0060391505
204	0xbdfe27d5	-0.12409941
205	0xbbbfedf1	-0.0058572222
206	0xbdd82f65	-0.10555915
207	0xbe3a3247	-0.18183242
208	0x3d98012a	0.07422097
209	0xbd528e2d	-0.05140512
210	0x3c8f6662	0.017504875
211	0x3cb35bb0	0.021894306
212	0xbdec3ac7	-0.115346484
213	0x3e11a9d5	0.14224942
214	0x3dcd01ae	0.10010086
215	0xbc5003d2	-0.012696223
216	0x39dd84ae	0.0004225126
217	0xbde39b4c	-0.11113605
218	0xbce0b0f3	-0.027428126
219	0x3db26a48	0.08711678
220	0xbe0fa387	-0.14027224
221	0x3de5ed61	0.11226917
222	0x3e3b9bde	0.18321177
223	0xbe3eca5e	-0.18631884
224	0xbdcf10d3	-0.10110631
225	0xbcdc3224	-0.026879378
226	0x3d42d9f9	0.047571156
227	0xbe0945ad	-0.13405485
228	0xbe0d38db	-0.1379122
229	0x3dfcc1d5	0.12341658
230	0xbd134ddf	-0.035962936
231	0x3e7b59e5	0.24546011
232	0xbd199d9c	-0.037503824
233	0xba00d4a0	-0.0004914496
234	0x3c946e7b	0.018119087
235	0x3dfda654	0.1238524
236	0xbcef2d2b	-0.029196342
237	0xbde03683	-0.10947897
238	0x3c22755a	0.009915674
239	0x3e108ea8	0.14116919
240	0xbe169c47	-0.14708053
241	0x3babafb8	0.005239453
242	0xbdb5ae6d	-0.0887116
243	0xbdfeab05	-0.12434963
244	0xbde8b15a	-0.11361952
245	0xbca0c7fa	-0.019626606
246	0xbe21bb29	-0.15794052
247	0xbcc37078	-0.02385734
248	0xbd73e0a6	-0.059540413
249	0x3d12f138	0.035874575
250	0xbd2387fb	-0.039924603
251	0xbd954730	-0.072889686
252	0xbd31d64b	-0.043417256
253	0xbd65f51f	-0.05614197
254	0xbd975f43	-0.073912166
255	0x3d6f8c56	0.058483444

encoder.4.bias f4 [64]
0	0xbaae22f7	-0.0013285567
1	0xbe14938b	-0.14509408
2	0xbd6b4028	-0.05743423
3	0xbd37e070	-0.044891775
4	0xbcd8a91e	-0.026447829
5	0x3b16f722	0.0023035486
6	0xbd9aad38	-0.0755257
7	0xbd3ed9fc	-0.046594605
8	0x3d3b09e1	0.045663718
9	0xbd96fa49	-0.07371957
10	0x3c8bbaf9	0.017056929
11	0xbe530a0d	-0.20609303
12	0x3d02f791	0.03197438
13	0xbd9dcd0a	-0.07705124
14	0x3d5658b2	0.05233068
15	0xbc4505fa	-0.012025351
16	0xbcd5bb64	-0.026090331
17	0xbd228146	-0.039674066
18	0xbc84938c	-0.016183637
19	0x3d910af8	0.0708217
20	0x3d453f8a	0.0481563
21	0x3d9d321b	0.076755725
22	0xbd7ddd1c	-0.061978444
23	0x3daf2fdb	0.085540496
24	0xbd0cce53	-0.034376454
25	0xbb817e76	-0.003951843
26	0xbd38fd8c	-0.045163676
27	0xbcc212fe	-0.023690697
28	0x3b80d010	0.003931053
29	0xbc4be422	-0.012444528
30	0x3c933d8e	0.017973687
31	0xbcb0c64d	-0.021578932
32	0x3d0fee40	0.035139322
33	0xbbea3521	-0.0071474467
34	0x3c99d899	0.01878004
35	0x3d07c44b	0.033146184
36	0x3d2d2d48	0.04227951
37	0x3d838902	0.064226165
38	0x3c027503	0.007962468
39	0x3d1381ea	0.036012568
40	0xbd9c78f1	-0.07640255
41	0xbc30d4ee	-0.010792954
42	0xbcb71fcd	-0.022354031
43	0xbdaf1491	-0.085488446
44	0xbd27cddc	-0.040967807
45	0xbe6643bf	-0.2248678
46	0x3d822174	0.06354037
47	0xbd3eaad8	-0.046549648
48	0xbc999348	-0.018746987
49	0xbc8e02f9	-0.017335402
50	0x3b94f0cd	0.0045453073
51	0x3cdf1002	0.027229313
52	0x3cc8b5ec	0.02450081
53	0x3d8253d4	0.06363645
54	0xbd63d9bd	-0.055627573
55	0xbd5cdbd1	-0.05392057
56	0x3d900bf3	0.07033529
57	0x3da3a5d7	0.07990616
58	0xba80c7c2	-0.0009825157
59	0x3dc77ece	0.09740983
60	0xbc824751	-0.015903147
61	0x3b372079	0.002794294
62	0xbd561c49	-0.05227307
63	0x3d24b689	0.04021314

encoder.5.weight f4 [64]
0	0x3f7ba339	0.98295933
1	0x3f91c531	1.1388303
2	0x3f6a451b	0.91511697
3	0x3f686cbd	0.9079092
4	0x3f531f26	0.82469404
5	0x3f6d6b62	0.9274198
6	0x3f7e7b6a	0.99407065
7	0x3f6b61cd	0.9194611
8	0x3f586e5a	0.84543383
9	0x3f7de376	0.991752
10	0x3f787e54	0.9706776
11	0x3f545d49	0.8295484
12	0x3f7ba093	0.9829189
13	0x3f6f6477	0.9351267
14	0x3f6b1dba	0.91842234
15	0x3f78ffab	0.9726512
16	0x3f7806ab	0.96885175
17	0x3f6e63a2	0.9312078
18	0x3f7a73fb	0.9783322
19	0x3f5167d8	0.8179908
20	0x3f7335ed	0.9500416
21	0x3f7ea6a7	0.9947304
22	0x3f7aea48	0.98013735
23	0x3f7921d5	0.9731725
24	0x3f5f23df	0.8716411
25	0x3f6f370f	0.9344339
26	0x3f74a1a9	0.95559174
27	0x3f791929	0.97304016
28	0x3f74569d	0.9544466
29	0x3f59b383	0.8503954
30	0x3f724914	0.9464276
31	0x3f7d953b	0.9905583
32	0x3f5d4251	0.86429316
33	0x3f84a690	1.0363331
34	0x3f77bbc5	0.9677089
35	0x3f6d5005	0.92700225
36	0x3f575960	0.8412075
37	0x3f6de8ff	0.9293365
38	0x3f6b1cbd	0.91840726
39	0x3f6525c5	0.89510757
40	0x3f67cccb	0.90546864
41	0x3f74db44	0.9564707
42	0x3f772af6	0.9654993
43	0x3f710429	0.9414697
44	0x3f5d44a5	0.8643287
45	0x3f71a227	0.9438805
46	0x3f5d9018	0.86547995
47	0x3f65ae39	0.8971897
48	0x3f7638b1	0.96180254
49	0x3f782203	0.969269
50	0x3f66ad54	0.9010823
51	0x3f720bc5	0.9454921
52	0x3f8051f5	1.0025011
53	0x3f77d3ea	0.9680773
54	0x3f69ac69	0.912787
55	0x3f55d1c2	0.8352319
56	0x3f59a9a1	0.8502446
57	0x3f6d81cc	0.9277618
58	0x3f7fc8a4	0.9991553
59	0x3f658685	0.89658386
60	0x3f6a47b9	0.9151569
61	0x3f665fde	0.8999003
62	0x3f6a2223	0.9145834
63	0x3f77804e	0.9668015

encoder.5.bias f4 [64]
0	0xbe0455b3	-0.12923317
1	0xbe4b14f3	-0.1983221
2	0xbe2bd4c7	-0.16780387
3	0xbdee6a77	-0.116414
4	0xbdd7e7f3	-0.10542288
5	0xbd8f5f85	-0.07000641
6	0xbe10bb5d	-0.14133973
7	0xbd444709	-0.047919307
8	0xbe47a973	-0.19498233
9	0xbd283bbc	-0.041072592
10	0xbdc37e51	-0.09545577
11	0xbcde392a	-0.027126867
12	0xbd9809c7	-0.0742374
13	0xbdd1f052	-0.102509156
14	0xbe3fca37	-0.18729483
15	0xbe5b1f71	-0.21398713
16	0xbdf347ff	-0.118789665
17	0xbdf7b5db	-0.12095233
18	0xbe026c96	-0.12736735
19	0xbdd2b327	-0.10288077
20	0xbd7f4021	-0.062317017
21	0xbdb88bec	-0.09011063
22	0xbdcba2d2	-0.09943165
23	0xbdc5c4b6	-0.0965666
24	0xbe073c54	-0.13206607
25	0xbe0fa8d9	-0.14029254
26	0xbd903af4	-0.070424944
27	0xbdb081e0	-0.08618522
28	0xbe00ba22	-0.12571004
29	0xbdf5a888	-0.119950354
30	0xbdb1f80f	-0.086898915
31	0xbdc916bd	-0.0981879
32	0xbdf75191	-0.120761044
33	0xbe08edf0	-0.13372016
34	0xbd6be954	-0.057595566
35	0xbdec229a	-0.11530037
36	0xbde618a7	-0.11235171
37	0xbdbb2d70	-0.09139526
38	0xbda88bd5	-0.08229796
39	0xbe3d4548	-0.1848346
40	0xbdeb243d	-0.11481521
41	0xbdd856be	-0.1056342
42	0xbd88126e	-0.0664414
43	0xbdf54d71	-0.119776614
44	0xbde55c2c	-0.11199221
45	0xbe0ce766	-0.13760146
46	0xbe12d34f	-0.1433842
47	0xbdd662ba	-0.10468049
48	0xbe3725b4	-0.17885476
49	0xbdff87b4	-0.12477055
50	0xbdc1729f	-0.0944569
51	0xbda9336f	-0.08261763
52	0xbda781c6	-0.08179049
53	0xbdaac96c	-0.083391994
54	0xbdff5f32	-0.12469329
55	0xbe085f99	-0.13317718
56	0xbdf21bef	-0.11821734
57	0xbd9b7ebb	-0.07592531
58	0xbdb8630d	-0.090032674
59	0xbdd8deff	-0.10589408
60	0xbe08b09c	-0.13348621
61	0xbd71dcf3	-0.059048604
62	0xbdb1e305	-0.08685879
63	0xbd663156	-0.056199394

encoder.8.weight f4 [32, 64]
0	0xbda94c48	-0.082665026
1	0x3e3bf1aa	0.18353906
2	0x3d52cd96	0.051465593
3	0xbd0b4bf3	-0.034007978
4	0xbcd38c95	-0.02582387
5	0xbd9fe166	-0.07806663
6	0x3d336578	0.04379794
7	0xbd66a6d3	-0.05631144
8	0xbdfa4c12	-0.122215405
9	0xbd11117c	-0.035417065
10	0xbdc811b7	-0.09769004
11	0x3d6ebf60	0.05828798
12	0xbd45ced0	-0.048292935
13	0xbd5f6503	-0.05453969
14	0x3ddeb7b0	0.10874879
15	0x3d0f2031	0.03494281
16	0x3da063e5	0.07831553
17	0x3da68c1c	0.081321925
18	0xbcec3c02	-0.028837208
19	0xbdf8e994	-0.121539265
20	0x3d888e53	0.06667771
21	0x3d0597f7	0.032615628
22	0xbddad4ed	-0.106851436
23	0xbd442067	-0.047882464
24	0x3df3caa5	0.11903886
25	0xbe0df18e	-0.13861677
26	0x3d3c0365	0.045901675
27	0xbaf9c379	-0.0019055448
28	0x3da2eac6	0.07954936
29	0xbdef6161	-0.116884954
30	0xbdc01b7a	-0.09380241
31	0xbdb32989	-0.087481566
32	0x3df60271	0.120121844
33	0x3d804c13	0.0626451
34	0x3d87b860	0.066269636
35	0x3e17c91f	0.14822815
36	0xbdb5f6b4	-0.088849455
37	0xbe09b0eb	-0.13446395
38	0xbd1bcc0b	-0.038036387
39	0xbcd9201e	-0.026504572
40	0xbb8e85ba	-0.0043494375
41	0xbdb93362	-0.090430036
42	0x3d1e98ca	0.03871993
43	0xbd0f69e8	-0.03501311
44	0xb9c76ecb	-0.00038038785
45	0x3dd01ff8	0.101623476
46	0xbd89ef64	-0.06735113
47	0x3dd72606	0.10505299
48	0xbdcd813d	-0.10034416
49	0x3c3f522b	0.011677305
50	0xbc2e5087	-0.010639316
51	0xbc1eb52d	-0.00968675
52	0x3da58c6f	0.08083426
53	0x3cd08bb1	0.025457235
54	0x3e026dfe	0.12737271
55	0xbd2f6732	-0.042823024
56	0x3db67260	0.08908534
57	0x3e55695f	0.20840977
58	0x3c39bd15	0.011336585
59	0xbdd9974a	-0.10624559
60	0x3d86a224	0.065738946
61	0x3e27f8c6	0.16403493
62	0xbdac0474	-0.08399287
63	0x3dc96a3e	0.09834717
64	0xbc961e9c	-0.018325143
65	0xbe2565a3	-0.16152053
66	0xbbb4f62f	-0.0055225114
67	0x3d0b466d	0.03400271
68	0x3ddd34c2	0.108010784
69	0x3dc87475	0.097878374
70	0xbd7096dd	-0.058737624
71	0x3ca14521	0.019686284
72	0x3d3285f8	0.043584794
73	0xbdd0c895	-0.10194508
74	0x3dbf0d09	0.09328658
75	0x3d755ee3	0.059904944
76	0x3d608e71	0.054823343
77	0xbdb5d4fa	-0.08878513
78	0x3d95874c	0.073011965
79	0x3de0faee	0.10985361
80	0x3d88846a	0.06665881
81	0xbc65603c	-0.013999995
82	0xbdc36744	-0.09541181
83	0x3d91d7ca	0.071212366
84	0xbd3af069	-0.04563943
85	0xbdd59ea7	-0.10430651
86	0x3c8ee88a	0.017444868
87	0x3db69f7a	0.089171365
88	0xbde314b2	-0.11087932
89	0xbd042ff4	-0.032272294
90	0xbe10673a	-0.14101878
91	0x3dbbaa59	0.091633506
92	0x3d0a5723	0.033774506
93	0x3da5bacd	0.0809227
94	0xbd1b0184	-0.037843242
95	0x3d4ca845	0.04996516
96	0xbdf5c88b	-0.12001141
97	0x3dbe7aa0	0.093007326
98	0x3ddaf20a	0.106906965
99	0xbd79b0dc	-0.060959682
100	0x3dd4809b	0.10376092
101	0x3e08c1de	0.13355204
102	0xbd312ea6	-0.043257378
103	0x3d917d5a	0.07103987
104	0xbd6dbbf7	-0.058040585
105	0x3d3c6fe2	0.046005137
106	0xbc2c6f26	-0.010524547
107	0x3dc18f7a	0.09451194
108	0xbd56106a	-0.052261747
109	0x3de7ad83	0.113123916
110	0xbdf7f396	-0.12107007
111	0x3d5e67d5	0.05429824
112	0x3cde7641	0.027155997
113	0xbced9679	-0.029002415
114	0xbc0ff3e8	-0.008786179
115	0xbddf8429	-0.109138794
116	0x3df209a1	0.11818243
117	0x3d0ea248	0.034822732
118	0xbcd2531a	-0.025674392
119	0xbd300109	-0.042969737
120	0xbdf7bcf3	-0.12096586
121	0xbd4ec979	-0.050485108
122	0xbd8266b6	-0.06367247
123	0x3e2e628d	0.17029782
124	0xbc2ecfce	-0.010669662
125	0xbe11b922	-0.14230779
126	0x3d27f76d	0.041007448
127	0xbe063afc	-0.13108438
128	0x3b902a30	0.0043995604
129	0xbe2babe9	-0.16764797
130	0xbcef8fbc	-0.029243343
131	0x3da87c63	0.0822685
132	0x3e058ae2	0.13041261
133	0xbdc87756	-0.097883865
134	0x3a523367	0.0008018524
135	0x3d4a8a58	0.04944834
136	0x3d083c05	0.033260364
137	0xbde43c76	-0.111443445
138	0x3d7f865b	0.06238399
139	0xbcafb78d	-0.021449829
140	0x3d39febd	0.045408953
141	0x3e30f667	0.17281495
142	0xbbd7d80d	-0.0065870346
143	0x3de2260d	0.11042414
144	0x3ccef567	0.025263501
145	0xbdb0425b	-0.08606406
146	0xbd950232	-0.07275809
147	0x3cad346c	0.02114316
148	0x3c4574a6	0.012051737
149	0x3da6784c	0.081284136
150	0xbd4a2d39	-0.049359534
151	0x3d1a10cc	0.037613675
152	0xbd8172ff	-0.06320762
153	0xbd57e0e2	-0.0527047
154	0xbdc8088d	-0.09767256
155	0xbc87ddd5	-0.01658527
156	0x3d970542	0.0737405
157	0xbd20638c	-0.039157435
158	0xbcd8a204	-0.026444443
159	0x3c6b4524	0.014359746
160	0xbc956f83	-0.01824165
161	0x3e23e8f9	0.16006841
162	0xbd5d9d61	-0.054105166
163	0xbd8511ad	-0.06497512
164	0x3e4ec6d8	0.2019304
165	0x3e093af4	0.13401395
166	0x3d5b497c	0.053536877
167	0x3df79338	0.120886266
168	0x3cc5fbed	0.02416798
169	0x3dc86f7c	0.09786889
170	0xbdba1218	-0.09085482
171	0x3e002a06	0.1251603
172	0xbe0ed7db	-0.1394953
173	0xbdbc229e	-0.0918629
174	0x3dc6c2f4	0.09705153
175	0xbda0a91d	-0.07844756
176	0xbe360986	-0.1777707
177	0x3dd82495	0.105538525
178	0x3ce3481d	0.027744347
179	0xbd1de1bf	-0.038545366
180	0xbc94e83a	-0.01817714
181	0x3de271b7	0.11056846
182	0x3d9b39bc	0.07579371
183	0x3cb73558	0.022364303
184	0xbe245bed	-0.16050692
185	0xbcb99664	-0.02265472
186	0x3d9ecc1d	0.07753775
187	0x3d93b116	0.07211511
188	0xbd5a094f	-0.053231534
189	0xbdb3b7a9	-0.08775265
190	0x3dca4a9b	0.09877511
191	0x3c7646b7	0.015031508
192	0x3de3d18d	0.11123953
193	0x3e4f6b96	0.20255885
194	0x3d436e93	0.047712874
195	0x3de66272	0.11249246
196	0xbd8481b3	-0.06470051
197	0xbd2ddb7f	-0.042445656
198	0x3dfa13ec	0.12210831
199	0xbd2b807f	-0.04187059
200	0xbdb7d66a	-0.08976443
201	0x385c4688	5.2517775e-05
202	0xbd765bcb	-0.060146134
203	0xbda5b14d	-0.08090458
204	0x3d8137f8	0.06309503
205	0x3e33c428	0.17555296
206	0x3e60d464	0.2195602
207	0x3aa24907	0.0012381383
208	0xbdb32e08	-0.08749014
209	0xbb23d684	-0.0024999687
210	0x3e03e00c	0.12878436
211	0xbc86d7b9	-0.016460286
212	0x3c4881ec	0.012238007
213	0xbd951667	-0.072796635
214	0xbdeec119	-0.11657924
215	0x3b7a8cf5	0.003823099
216	0x3d3659e2	0.044519313
217	0xbc054e7f	-0.008136391
218	0x3dc5baf3	0.09654798
219	0x3d02d483	0.03194095
220	0x3e13f7e4	0.14450032
221	0xbce3c5ad	-0.02780422
222	0xbd09fa53	-0.033685993
223	0xbd67cd8b	-0.056592505
224	0xbd379942	-0.044823892
225	0xbdefcc51	-0.11708892
226	0xbca523f2	-0.020158742
227	0xbdb61e4e	-0.08892499
228	0x3df362b7	0.11884063
229	0xbdca3e09	-0.098751135
230	0xbd3fccc3	-0.046826135
231	0xbcc3bd7c	-0.023894064
232	0xbc871eac	-0.016494118
233	0xbc9a1e6b	-0.018813333
234	0xbe3f23f6	-0.18666062
235	0x3d06d6b2	0.032919593
236	0x3d9f7a35	0.07786981
237	0xbc3d41db	-0.011551346
238	0x3d04cc78	0.03242156
239	0x3e130057	0.14355598
240	0x3da68292	0.08130373
241	0x3dd451de	0.103671774
242	0xbd88a6c1	-0.06672431
243	0xbaf82681	-0.0018932373
244	0xbcf8257d	-0.030291313
245	0x3dc3e540	0.0956521
246	0xbd819b44	-0.06328443
247	0xbd5b7002	-0.053573616
248	0x3d2dd658	0.042440742
249	0xbdf258e5	-0.118333615
250	0x3dedca31	0.116108306
251	0x3cb7d97b	0.02244257
252	0xbe078324	-0.1323362
253	0xbd536fc5	-0.051620264
254	0xbb54deb5	-0.0032481377
255	0xbdd0c722	-0.101942316

encoder.8.bias f4 [32]
0	0xbdd99d49	-0.10625703
1	0xbc002078	-0.007820241
2	0xbd04bf2a	-0.03240887
3	0x3d0f6e0e	0.035017066
4	0x3d20f0a1	0.03929198
5	0xbd4f4e9b	-0.050612073
6	0xbda6b273	-0.08139505
7	0x3e0355d8	0.12825716
8	0x3dd35aac	0.10320029
9	0xbdd859dc	-0.10564014
10	0x3df9c7b7	0.12196296
11	0x3a83786d	0.0010030397
12	0xbd609d50	-0.054837525
13	0x3de9f7f9	0.1142425
14	0x3d9aa0fe	0.07550238
15	0xbe0fe2c9	-0.14051355
16	0xbbcade5f	-0.0061910595
17	0xbd5edaca	-0.054407872
18	0xbdfb825f	-0.12280726
19	0x3d166ee5	0.03672685
20	0xbd86868c	-0.065686315
21	0xbe1e674c	-0.15469092
22	0x3c8a4ead	0.016883219
23	0x3de46eb6	0.11153929
24	0xbc1afaa9	-0.009459176
25	0x3dc224a7	0.09479647
26	0xbb8597f2	-0.004076951
27	0xbd1051bf	-0.03523421
28	0x3ca79f36	0.02046166
29	0xbdb5a7b9	-0.08869881
30	0x3bed0704	0.0072335023
31	0xbc43e058	-0.011955343

transformer.norm1.weight f4 [32]
0	0x3f82a5d7	1.020686
1	0x3f80187f	1.0007476
2	0x3f7cbcdd	0.9872568
3	0x3f82cd5d	1.0218922
4	0x3f79eefa	0.97630274
5	0x3f791da9	0.9731088
6	0x3f7ed6b5	0.99546367
7	0x3f84e7d7	1.0383252
8	0x3f8311c3	1.0239795
9	0x3f865897	1.0495785
10	0x3f870cf9	1.0550834
11	0x3f834f86	1.0258644
12	0x3f818cc5	1.0121084
13	0x3f813474	1.0094132
14	0x3f7ffa31	0.99991137
15	0x3f808fdf	1.0043906
16	0x3f7abdf4	0.97946095
17	0x3f85403e	1.041023
18	0x3f8016d4	1.0006967
19	0x3f7f7ba1	0.9979802
20	0x3f7c9d04	0.98677087
21	0x3f80385c	1.00172
22	0x3f8186f4	1.011931
23	0x3f801bcf	1.0008487
24	0x3f83b9ec	1.0291114
25	0x3f7f7e73	0.9980232
26	0x3f7c89a3	0.98647517
27	0x3f81c4c2	1.0138171
28	0x3f7ee4f0	0.9956808
29	0x3f7e9039	0.99438816
30	0x3f7de397	0.991754
31	0x3f767f14	0.96287656

transformer.norm1.bias f4 [32]
0	0x3c493546	0.012280768
1	0xbc397966	-0.011320448
2	0x3d02e1cb	0.031953614
3	0x3d2a4bf6	0.04157635
4	0xbc4fb89e	-0.0126782935
5	0xba798649	-0.0009518606
6	0xbbbcb8a1	-0.005759314
7	0x3bd55d05	0.006511333
8	0x3acc2985	0.0015576339
9	0xbc46d287	-0.012135155
10	0x389cec6b	7.482696e-05
11	0x3c0a234a	0.008431265
12	0xbcb2ab77	-0.021810276
13	0xbcc1384f	-0.02358642
14	0xbcabf1a6	-0.02098925
15	0x3c0a5de8	0.008445241
16	0xbb82d967	-0.0039932015
17	0x3d08afd4	0.033370808
18	0xbbd9bf8c	-0.0066451486
19	0x3d04596c	0.03231184
20	0x3c6b57bf	0.014364182
21	0xbc7e73f1	-0.015530572
22	0xbcd437bc	-0.025905482
23	0xb9c47b78	-0.00037476025
24	0x3cf71bed	0.030164683
25	0x3ced13a8	0.028940037
26	0xbc0f19f9	-0.00873422
27	0x3bb16335	0.0054134377
28	0xbbc02b94	-0.00586457
29	0xbb2edf91	-0.002668355
30	0xbd10d8cf	-0.035363015
31	0x3c8a5646	0.016886842

transformer.attn.in_proj_weight f4 [96, 32]
0	0x3e5198df	0.20468472
1	0x3dda5f6a	0.1066273
2	0x3d89040a	0.066902235
3	0x3c2ad510	0.010426775
4	0xbe50c2e0	-0.20386839
5	0xbe12d8f4	-0.14340574
6	0x3dec915a	0.11551161
7	0x3e2873d5	0.16450436
8	0xbe04d532	-0.12971953
9	0x3d66b1d4	0.056321934
10	0xbe40df9b	-0.18835299
11	0xbb8c3240	-0.004278451
12	0xbdd8b496	-0.10581319
13	0xbb9e2220	-0.0048258454
14	0x3dc448ae	0.09584175
15	0xbd1c9780	-0.03823042
16	0x3b9e9480	0.00483948
17	0xbdbf1999	-0.09331054
18	0xbdec62f2	-0.1154231
19	0xbde5621c	-0.112003535
20	0x3d9546da	0.072889045
21	0x3a99bb00	0.0011728704
22	0x3db043aa	0.08606656
23	0xbd80ee1c	-0.06295416
24	0x3aa72080	0.0012750775
25	0x3ccad248	0.024758473
26	0xbc04ec00	-0.008112907
27	0xbe1dd973	-0.15414982
28	0x3cfaa6c0	0.03059709
29	0x3d9bc72a	0.07606347
30	0xbe4c6ee2	-0.19964173
31	0x3e0506e1	0.12990905
32	0x3e42a93b	0.19009869
33	0x3d2c725c	0.04210125
34	0x3dd6ad7a	0.10482307
35	0xbd192034	-0.037384227
36	0x3e11bdc3	0.14232545
37	0x3e3b4f1f	0.18291901
38	0x3cea29b0	0.028584331
39	0xbe4ac659	-0.19802226
40	0x3cdb96c8	0.026805297
41	0xbe2a7d53	-0.1664937
42	0x3cd5a508	0.02607967
43	0x3e1d7093	0.15374975
44	0xbe5ce45e	-0.2157149
45	0x3dd21a5e	0.102589354
46	0x3d21aff4	0.039474443
47	0x3c810538	0.015749559
48	0xbe4fedd3	-0.20305566
49	0x3c9b76b0	0.018977493
50	0x3e4df03f	0.20111178
51	0x3e04af17	0.12957416
52	0x3e16fccd	0.14744873
53	0x3dc25e3a	0.094906285
54	0xbe2eb224	-0.17060143
55	0x3dff5bce	0.12468682
56	0xbe17638c	-0.14784068
57	0xbe37aaea	-0.17936292
58	0x3de0da9e	0.10979198
59	0x3e121f27	0.14269696
60	0xbe5c7fbf	-0.21533106
61	0x3c0f2120	0.008735925
62	0x3e3364f7	0.17518984
63	0xbe4a7278	-0.19770229
64	0xbe3a87d6	-0.1821588
65	0xbdf712f3	-0.12064161
66	0xbd983874	-0.074326426
67	0xbe4b8d1b	-0.19878046
68	0xbe081dde	-0.13292643
69	0xbd5e397c	-0.05425404
70	0xbd286168	-0.04110852
71	0xbe0c30da	-0.1369051
72	0xbe07f5c7	-0.1327735
73	0xbe1b6d02	-0.15178302
74	0xbe0bf46c	-0.13667458
75	0x3e57deb1	0.21081044
76	0xbde760cb	-0.11297759
77	0x3c9bb6b8	0.019008026
78	0xbdec59c5	-0.1154056
79	0xbdec8b9c	-0.11550066
80	0x3d580d14	0.052746847
81	0xbdb67d3e	-0.08910607
82	0xbe2f79cb	-0.17136304
83	0xbd72d3c4	-0.059283987
84	0x3dc8e066	0.098084256
85	0xbe10be39	-0.14135064
86	0x3e47a6b5	0.19497187
87	0x3acd7480	0.0015674978
88	0xbe296c45	-0.16545208
89	0x3e250a55	0.16117223
90	0x3d5cb644	0.05388476
91	0x3e1af469	0.15132298
92	0x3d8d9afa	0.06914325
93	0xbe3618b0	-0.17782855
94	0x3e330b19	0.17484702
95	0xbe0b0042	-0.13574317
96	0xbd4b9908	-0.04970649
97	0x3e532bdd	0.20622201
98	0x3e4f9df3	0.20275097
99	0x39ed5400	0.00045266747
100	0x3b0dd740	0.0021643192
101	0x3cc43d18	0.023954913
102	0xbe0475e3	-0.12935595
103	0xbe4f1939	-0.20224465
104	0x3cd64cd0	0.026159674
105	0xbe3f7ad1	-0.18699194
106	0x3e2a9f37	0.16662298
107	0x3e20d4b3	0.15706138
108	0x3e0b829f	0.13624047
109	0x3d35dc24	0.044399396
110	0xbe37ca78	-0.1794833
111	0x3e025e2b	0.12731235
112	0xbe3ec5cc	-0.18630141
113	0xbc49a240	-0.01230675
114	0xbde4d527	-0.11173468
115	0xbd2ffac8	-0.042963773
116	0x3e2de1c7	0.16980658
117	0xbdca37f7	-0.09873956
118	0x3d8f1fb6	0.0698847
119	0xbd808304	-0.06274989
120	0x3e136d83	0.14397244
121	0x3e5c90a7	0.21539555
122	0xbe3576d7	-0.17721115
123	0x3e34c0cf	0.17651676
124	0x3e1a978b	0.15096872
125	0x3d81bdf6	0.0633506
126	0xbd8a1b48	-0.06743485
127	0x3e0506c1	0.12990858
128	0x3e457dc7	0.19286261
129	0xbdaf1b58	-0.08550137
130	0x3d0f45cc	0.034978673
131	0x3e4f92ff	0.20270918
132	0xbd4b1078	-0.049576253
133	0xbe16af33	-0.1471527
134	0x3d0eb27c	0.034838185
135	0x3d6d7b3c	0.057978854
136	0xbe1766ce	-0.1478531
137	0xbd108734	-0.03528519
138	0x3e08eeb7	0.13372312
139	0xbd819406	-0.06327061
140	0x3cc01228	0.023446158
141	0xbe0d3a28	-0.13791716
142	0x3e07f1bd	0.1327581
143	0xbdb9cf18	-0.09072703
144	0x3dc1040a	0.094245985
145	0xbe003776	-0.12521157
146	0xbde9c424	-0.11414364
147	0xbd8bb27a	-0.06821151
148	0x3cf021f0	0.029313058
149	0x3e3afc01	0.18260194
150	0x3d07b010	0.03312689
151	0xbd3806b4	-0.044928268
152	0xbd563258	-0.052294105
153	0x3e44d4b5	0.19221766
154	0xbe280630	-0.1640861
155	0xbe1aa48d	-0.15101834
156	0x3d896aee	0.06709848
157	0xbe2af728	-0.16695845
158	0xbd6bf484	-0.057606235
159	0x3d188524	0.037236348
160	0xbbdb7460	-0.0066972226
161	0x3e025719	0.12728538
162	0xbd947bbc	-0.07250163
163	0xbe5aa396	-0.21351466
164	0xbe31c2aa	-0.17359415
165	0xbc9dd1c0	-0.019265056
166	0x3db57732	0.08860625
167	0x3e290a7d	0.16507907
168	0x3df3d5b2	0.119059935
169	0xbe3ab536	-0.18233189
170	0x3e094f39	0.13409127
171	0xbc192c70	-0.009348974
172	0x3e4ad951	0.19809462
173	0xbe3fad56	-0.18718466
174	0x3e2f9d57	0.17149864
175	0x3e1d219f	0.15344857
176	0xbb56dcc0	-0.0032785386
177	0x3e3421f9	0.17591085
178	0x3dbd4396	0.092414066
179	0xbe3eba2b	-0.18625705
180	0x3d422b6c	0.04740469
181	0x3d0f8c04	0.03504564
182	0xbe2b171b	-0.16708033
183	0xbd21abe4	-0.03947057
184	0xbe0ed58a	-0.13948646
185	0x3dc68ad6	0.096944496
186	0xbe5ccd62	-0.21562722
187	0xbe4e7d21	-0.2016492
188	0xbe34e156	-0.17664084
189	0x3e17e0f3	0.14831905
190	0x3e0181af	0.12647127
191	0xbe4526f7	-0.19253145
192	0x3e1c6e63	0.15276484
193	0xbe26f676	-0.16304955
194	0xbe297d7d	-0.16551776
195	0x3dbc7d02	0.09203531
196	0x3e1d6e95	0.15374215
197	0xbe4000bd	-0.18750282
198	0x3d99a9aa	0.07503064
199	0x3dbfb11e	0.09359954
200	0xbe2420c7	-0.16028129
201	0xbd1d7220	-0.038438916
202	0xbdacbd18	-0.08434504
203	0x3e029aa9	0.1275431
204	0x3c7f3f20	0.015579015
205	0x3d2a0d04	0.04151632
206	0xbc6d6b60	-0.014490932
207	0xbd957a0c	-0.07298669
208	0xbd42cba8	-0.047557503
209	0xbe3347fd	-0.1750793
210	0x3d8eebe2	0.06978585
211	0xbe21c844	-0.15799052
212	0x3dee12be	0.116246685
213	0xbd8e01d6	-0.06933944
214	0x3e0aab93	0.13542013
215	0xbd0183e4	-0.03161992
216	0xbc577f00	-0.013152838
217	0xbda2a3cc	-0.07941398
218	0xbe36ceac	-0.17852277
219	0xbd999096	-0.07498281
220	0x3e47096d	0.1943719
221	0xbe18ffcc	-0.14941329
222	0xbcfd1000	-0.030891418
223	0x3d9997da	0.074996665
224	0x3d78468c	0.060614154
225	0x3def4ca6	0.116845414
226	0x3e49d991	0.19711901
227	0xbe5a5b76	-0.21323952
228	0xbc94f070	-0.018181056
229	0xbe177e2c	-0.14794225
230	0x3ddd4702	0.10804559
231	0x3e0eee69	0.13958134
232	0xbd8ce1e6	-0.06879024
233	0xbe58501f	-0.21124314
234	0x3e59b12f	0.21258996
235	0xbcf2ebe0	-0.02965349
236	0x3c3a38a0	0.0113660395
237	0x3dbc11f2	0.0918311
238	0x3dd2a1c6	0.10284762
239	0x3e4f641d	0.20253034
240	0xbde44901	-0.11146737
241	0x3dfce022	0.123474374
242	0x3d7cb914	0.06169994
243	0x3e40c11d	0.18823667
244	0x3dd46532	0.10370864
245	0xbd94affc	-0.07260129
246	0x3a3ff400	0.00073224306
247	0xbdce0969	-0.100603886
248	0x3e012fb5	0.12615855
249	0x3da6e58e	0.08149253
250	0x3e3d3b4f	0.18479656
251	0x3d265444	0.040607706
252	0x3d785b14	0.060633734
253	0x3e52a5e7	0.20571099
254	0xbd8381dc	-0.06421253
255	0xbe19fe4a	-0.1503841

transformer.attn.in_proj_bias f4 [96]
0	0x00000000	0.0
1	0x00000000	0.0
2	0x00000000	0.0
3	0x00000000	0.0
4	0x00000000	0.0
5	0x00000000	0.0
6	0x00000000	0.0
7	0x00000000	0.0
8	0x00000000	0.0
9	0x00000000	0.0
10	0x00000000	0.0
11	0x00000000	0.0
12	0x00000000	0.0
13	0x00000000	0.0
14	0x00000000	0.0
15	0x00000000	0.0
16	0x00000000	0.0
17	0x00000000	0.0
18	0x00000000	0.0
19	0x00000000	0.0
20	0x00000000	0.0
21	0x00000000	0.0
22	0x00000000	0.0
23	0x00000000	0.0
24	0x00000000	0.0
25	0x00000000	0.0
26	0x00000000	0.0
27	0x00000000	0.0
28	0x00000000	0.0
29	0x00000000	0.0
30	0x00000000	0.0
31	0x00000000	0.0
32	0x00000000	0.0
33	0x00000000	0.0
34	0x00000000	0.0
35	0x00000000	0.0
36	0x00000000	0.0
37	0x00000000	0.0
38	0x00000000	0.0
39	0x00000000	0.0
40	0x00000000	0.0
41	0x00000000	0.0
42	0x00000000	0.0
43	0x00000000	0.0
44	0x00000000	0.0
45	0x00000000	0.0
46	0x00000000	0.0
47	0x00000000	0.0
48	0x00000000	0.0
49	0x00000000	0.0
50	0x00000000	0.0
51	0x00000000	0.0
52	0x00000000	0.0
53	0x00000000	0.0
54	0x00000000	0.0
55	0x00000000	0.0
56	0x00000000	0.0
57	0x00000000	0.0
58	0x00000000	0.0
59	0x00000000	0.0
60	0x00000000	0.0
61	0x00000000	0.0
62	0x00000000	0.0
63	0x00000000	0.0
64	0x3b09c279	0.0021020456
65	0xbcc967d7	-0.024585648
66	0xbc02fc41	-0.007994712
67	0x3c46f846	0.012144154
68	0x3c22205e	0.009895412
69	0x3cdfdea8	0.02732785
70	0xbd4aba9f	-0.049494382
71	0x39746add	0.00023309463
72	0xbc261dd6	-0.010138949
73	0x3cb8b94a	0.02254929
74	0xbc934b11	-0.01798013
75	0x3b076d2e	0.0020664441
76	0xbb88a75e	-0.0041703423
77	0xbc708e21	-0.014682324
78	0xbad518b8	-0.0016257977
79	0x3d1648b4	0.03669043
80	0x3c97655f	0.018480955
81	0xbb35aa0f	-0.002771977
82	0x3ceff5c2	0.029291991
83	0x3ca0d5d0	0.019633204
84	0xbccb02ab	-0.024781546
85	0xb9800722	-0.00024419377
86	0x3b0ad9a6	0.0021186857
87	0xbc521826	-0.01282314
88	0xbd0d3460	-0.034473777
89	0xba1332cb	-0.0005615174
90	0xbb5fa139	-0.0034123196
91	0x3c8b11a1	0.01697618
92	0x3d409176	0.047013722
93	0x3cb2ac79	0.021810757
94	0xbc87cfda	-0.016578604
95	0xbbdd5cba	-0.0067554386
